f1tenth_system_identification/mnn_custom_model.pth (torch, 6633 bytes, 8 tensors)

alpha_input_layer f4 [5]
00000000: d5ff 7f3f 56c2 663f 200d 4d3f b0dc 7c3f
00000010: 5e9e 7e3f
0.99999744 0.90140283 0.8009815 0.9877424 0.994604

alpha_hidden_layer f4 [60]
00000000: 0f4b f23d 3224 0c3e 2b17 543e aab0 973d
00000010: 80e7 463f 4e88 fb3e 94cf ff39 978b 313f
00000020: 0f8e 7b3f 9ea2 493f c339 fc3e 305f 8e3c
00000030: 8828 7e3f 09f4 9e3c 0178 243f 7b92 7f3e
00000040: c119 9d3e 12d8 e93b be91 983e 9c1b 903e
00000050: a3bf 0f3f 268c 373f b826 2d3e 5da1 d53d
00000060: 3901 d73d ac1c a73e 64b8 0c3f 73da b33c
00000070: 1a90 2f3f 034e 4f3f 6074 523e cda4 3d3c
00000080: 3e4b fb3e 644d 0a3d 9bc3 f53d c124 2739
00000090: 3077 123f a6cb 043f d930 073d d1d8 543f
000000a0: d1b5 c83e 8278 b03e ff00 8f3a c9bb 323f
000000b0: afc7 cf3c a49a 003f 9a06 4739 4765 0a3f
000000c0: 8d48 d63e 6bd5 2d3a 375a 133e d7c0 923e
000000d0: 6516 f43e 05f7 363f 148d 173f 6c65 393c
000000e0: 1f57 0d3f 1bbb 0c3d 41a8 523f 272e 123f
0.118307225 0.13685682 0.20711963 0.07406743 0.7769699 0.4912743 0.00048792048 0.6935362
0.9826364 0.7876376 0.4926282 0.017379373 0.99280596 0.019403474 0.6424561 0.24958222
0.3068371 0.0071363533 0.29798692 0.28146064 0.5615179 0.71698225 0.16909301 0.10431168
0.1049828 0.32639062 0.5496886 0.02195475 0.68579257 0.8097841 0.20552206 0.011574936
0.49080843 0.03376521 0.120001994 0.00015940053 0.57213116 0.5187324 0.03300557 0.83143336
0.39201215 0.3446694 0.0010910331 0.6981779 0.025363771 0.5023596 0.00018980578 0.54060787
0.41852227 0.0006631228 0.14389883 0.2866275 0.47673336 0.7147067 0.59199643 0.011315685
0.5521106 0.034358125 0.82287985 0.5710167

alpha_last_layer f4 [3]
00000000: bf2c 503f 52bc ff3e d0b3 e63e
0.8131828 0.49948364 0.4505906

beta f4 [3]
00000000: 0000 0000 70eb 7535 0000 0000
0.0 9.161222e-07 0.0

W_ih_nn f4 [5, 60]
00000000: 1584 943e 8de3 3d3f db66 f83e 2772 6b3e
00000010: bd93 9e3e fa7c cd3e 6d6b 373f 38a2 583f
00000020: 8d5b 35bd 8106 833f 8e97 e73e 0a7d 173f
00000030: 7554 053e 5d09 353f 5978 813f 9d82 1e3f
00000040: 969e f53e 88ee 2a3e 2ccc a63e 902c 2e3f
00000050: cd45 5c3f ad5c 933e bf17 083f 4220 433f
00000060: a3c9 383f 8f65 ba3d 142d 0d3f 90ac 513f
00000070: 1cab aa3e d00d 4a3f 1304 6c3f ca6f af3e
00000080: 9c5e 3d3f a673 0c3f 7cff 093f d90c f63d
00000090: c2ff 923e db47 603f 9145 fd3d 7748 083e
000000a0: 1a0d 253f 77e9 1f3f 7e24 5f3f 4668 dd3e
000000b0: e858 c93e c958 353f 1708 343f 36dc 0f3f
000000c0: 2d28 213e 2027 ff3e 703e 253d 2469 063f
000000d0: 9a71 973e 9426 40bc 2287 513f 9a46 353f
000000e0: 8adb bd3d 9875 a23e 7884 323f 26d4 d43e
000000f0: 57d4 e63d 547e 333f 19e9 143f 7043 103f
00000100: 61a7 3fbe 34e1 2f3f ebfe b73e 8aab 2a3f
00000110: 757d 7bbd a020 2a3e 6fcd db3d 8182 ad3d
00000120: 5b4a 013f 6341 133f bf96 833e c6d8 743e
00000130: c9f8 143f 8631 edbd deb9 cb3e 44f8 d83d
00000140: 0331 c53e f3d6 443f 04a7 0b3f 0bd4 2e3f
00000150: d88c ad3e 66f0 433c 23e0 a53e ff61 163f
00000160: 54a6 1a3f c50b 983e 8b1c 133f 25d2 3bbc
00000170: 029d 383f e58a 81bd 750d 0c3f d12b 6e3e
00000180: 4197 8f3e 3fbd 053f e790 0b3f 5d0e 26be
00000190: 1cd7 263d f813 043f fd38 bb3e a1c8 ba3e
000001a0: bbfa 0a3f 347e 0b3f e572 233f d07b 423f
000001b0: da6a 33be 8c40 fc3e ea30 b93d 7217 123f
000001c0: 1993 353f 4a52 383e fe22 f03e 6a38 e7bc
000001d0: d965 303e 5751 563f 157e a73d 6288 a13d
000001e0: 4e5e 133f 4177 f23e a18a 9a3e aba3 053f
000001f0: 9e2f 9d3e bcfc 9b3b 4a22 d63e 442a 373f
00000200: 5c8c 2d3f e355 6f3e 8585 283e e20e 233f
00000210: 0b1a ac3c f75f 30bc 92fa 083f 98cc 713e
00000220: 377e f93d ccb3 b13e 8190 f83e 8cdb 5d3f
00000230: a3a5 6a3f 793a 353f 7734 3b3f 5a69 763f
00000240: 32ee 003f 4549 833e 0a78 873d cf76 783f
00000250: eca7 f43d 360f e33e 80ce 373e 735b 0b3f
00000260: 664e 363f 066a b53e 048a 163d e394 d4bb
00000270: ad9c 583f 4ec9 e13e 340a 0b3e 45f7 b43e
00000280: ad56 a53e ff77 563f 06c9 6a3e 0583 123f
00000290: 22bd 783e 12b1 1c3c c904 343f 5c08 083f
000002a0: 03cf 563f 50c8 e8bc a66e 003e ac4f 2b3f
000002b0: 14ca 6b3f c72e 003f f8f2 7e3e f4cd 273f
000002c0: d32d 9e3d c9f8 383f 4fd5 5a3e 4e8f 0b3f
000002d0: 1a9b 0d3f 74f0 413f 18d9 5e3f c0c6 303f
000002e0: c083 e63e 216b b93d 249e 1b3f a393 f33e
000002f0: 2c0c 173f af6a ff3e 8e65 a23e 3bea 93bd
00000300: db46 5b3f 1684 043f d6c2 adbd 589f 693f
00000310: 6faf ff3e 141e 083f f8df 02bc 20d9 293f
00000320: addd cb3d 42d7 043f 19eb ac3e 4a24 313e
00000330: e4af 363f 24eb 573e 2457 7d3e 633c 023f
00000340: 1f52 103e 99c7 f43e 7649 443f 71f7 4c3f
00000350: 9850 e93a 789f 363f 4b21 c83e 5735 9a3e
00000360: 381c 5fbd 1ad0 f9bc 6571 4c3e 3fd4 df3e
00000370: 5443 333e e8e4 b0bc 61e9 353e 0d37 073f
00000380: bcfb 1a3f e70d cd3e fdc5 6f3e 8752 243e
00000390: 3acd 173e 74b7 9e3d e355 ff3e 8d2c 513f
000003a0: f953 c13e 371f abbd c247 843e 6ab4 f13e
000003b0: 9f10 23bd e190 4f3f 94f2 aabd 87d5 283f
000003c0: 5f0a c03e 83cd a2bd 7172 053f bfd3 523f
000003d0: 4c8f 133e 35d8 cd3d bcdc 40bd f4be cd3e
000003e0: 5cff 273f 43b8 13be 2ba2 01be 3574 253f
000003f0: 716c 383f 1c9d 963e 1228 0b3f ab28 113e
0.2900702 0.7417534 0.48515972 0.22992764 0.3097209 0.40134412 0.71648294 0.84622526
-0.044276763 1.023636 0.45232815 0.5917517 0.13020499 0.7071741 1.0114852 0.6191805
0.47972554 0.16692555 0.32577646 0.68036747 0.8604401 0.28781644 0.53161234 0.76221097
0.72182673 0.09101402 0.5514691 0.81903934 0.3333367 0.78927326 0.92193717 0.34264976
0.7397249 0.54863966 0.53905463 0.12014169 0.28710753 0.8760964 0.12366784 0.13308893
0.64473116 0.62465614 0.8716506 0.43243617 0.39325643 0.708386 0.70324844 0.5619539
0.15737982 0.49834538 0.04034275 0.5250418 0.2957886 -0.011727948 0.8184682 0.70810854
0.092703894 0.31730342 0.6973338 0.41568106 0.11270969 0.70114636 0.5816818 0.563529
-0.18716194 0.6870301 0.35936674 0.66668 -0.061398942 0.16614008 0.10732543 0.08472157
0.5050408 0.5752165 0.25700948 0.23910818 0.58192116 -0.115817115 0.39790243 0.10594228
0.38513955 0.76890486 0.5455172 0.682923 0.33896518 0.011959171 0.32397565 0.5874328
0.60410047 0.2969648 0.5746543 -0.011463677 0.72114575 -0.0632532 0.54708034 0.23258902
0.28045085 0.5224189 0.5451798 -0.16216417 0.040732488 0.5159297 0.36566916 0.36481193
0.54288834 0.54489446 0.6384719 0.7597017 -0.1752123 0.49267995 0.09042533 0.57067025
0.7092758 0.18000141 0.46901697 -0.028225143 0.17226352 0.83717865 0.08178345 0.07887341
0.5756577 0.4735661 0.3018389 0.5220286 0.30700392 0.004760353 0.41823035 0.7154887
0.67792296 0.23372607 0.16457184 0.63694584 0.021008512 -0.010765067 0.5350734 0.23613203
0.12182277 0.34707487 0.48547748 0.86663127 0.9165899 0.7079235 0.7312693 0.96254504
0.5036346 0.25641838 0.066146925 0.9705629 0.11946091 0.44347543 0.17949867 0.54436415
0.71213377 0.35432452 0.036752716 -0.0064874752 0.8461407 0.44098896 0.13578111 0.35344902
0.3229269 0.8377685 0.22928247 0.5723117 0.24290898 0.009563701 0.703198 0.53137755
0.83909625 -0.028415829 0.12542209 0.66918445 0.9210522 0.50071377 0.24897373 0.65548635
0.07723584 0.72254616 0.21370433 0.5451554 0.5531479 0.7575753 0.8705001 0.6905327
0.45022392 0.09053636 0.6078818 0.47573575 0.5900295 0.4988608 0.31718105 -0.0722241
0.8565499 0.5176405 -0.08484428 0.91258764 0.49938533 0.53170896 -0.007987969 0.6634693
0.09954391 0.5189096 0.33773115 0.17299 0.7136214 0.21085793 0.24740273 0.5087339
0.14093827 0.4780853 0.7667459 0.80065066 0.0017800508 0.7133708 0.390879 0.3011882
-0.05447027 -0.030494738 0.19965132 0.43716618 0.17506152 -0.021593526 0.17764808 0.52818376
0.60540366 0.4004967 0.2341537 0.16047107 0.14824381 0.07749835 0.49870214 0.81708604
0.3775938 -0.08355563 0.25835997 0.47207958 -0.039810773 0.8108044 -0.08347049 0.65950817
0.37507913 -0.079493545 0.5212775 0.8235435 0.14410132 0.10051004 -0.04708551 0.40184748
0.6562402 -0.14425759 -0.12659518 0.6463044 0.7204047 0.2941674 0.5435802 0.1417567

W_ho_nn f4 [60, 3]
00000000: 8894 cb3e d3ed cebe 3c69 e2bd ef9e 0abc
00000010: 989b df3e 1027 8bbd e23b 99bc e6bc 033e
00000020: 6955 51bc c593 ccbe cda4 9e3e 25b0 c63e
00000030: b4a5 3d3e 353d 0bbd bfc4 1e3e 352e 88bc
00000040: 374c 0d3d 1352 f7bd 2d96 dbbe f10e 89be
00000050: 30da 923e eb05 c2be 77bc 133e 86ff 38be
00000060: c8b2 183f 603e 0f3f d31d ac3e 3938 e2be
00000070: 4347 ad3e fd21 143d ffeb e53d 4d25 1e3f
00000080: 5747 0e3f 343f 8e3e 2977 a5bc de97 b9be
00000090: 7d4c 42be fd63 913e 8ca1 d03e 8a34 933e
000000a0: 537f ca3e 4b0f c1bd c1f1 7f3d 137f d1be
000000b0: 97fe 0f3e 0413 74bd 7f2a 07be 02f7 d7be
000000c0: 7d17 e73e f0af f1bd 6efd 34bb 16db 163f
000000d0: 2052 183d dc8a 773e f009 9bbe 8177 883e
000000e0: c3e5 fa3e 10ce 633d 8a08 8dbe 6803 cfbe
000000f0: 1294 d33c 7e21 08bf c1ba 0f3d e296 703e
00000100: fa74 023c 4d1c a6be 1da7 03bf 1f94 3abe
00000110: e61c 403d ce23 c4bd 92a4 abbe 9c42 96be
00000120: 809f 013d eeb9 3cbe 9bad c8be 4810 203f
00000130: b667 e03d e64b 773e a28c 483e 9294 1f3b
00000140: 1b82 6b3e d5a4 c0be 79b4 52be bf09 bcbe
00000150: 61f3 3a3d 471d bf3e 291f 113f 8135 b63d
00000160: f4cf 6bbe 5685 afbe 9fd5 04be ceb9 983d
00000170: 2612 a6be 2ab5 c0be a9dc 41be def6 8a3e
00000180: 4b36 153f 4bdc dc3e 8d90 923e dd84 c7be
00000190: 79e9 ca3e a69f 9dbe 6cae 743e 386e 0abf
000001a0: 4e04 663e 5d3d dd3e 2d1a 153f 40e0 183f
000001b0: fb43 1a3f a80a 813e e2f0 adbd 9f36 f0bd
000001c0: ed39 33be 166a a8bd e1ab 2bbe 9dac fb3d
000001d0: a9e9 b2be c8cf 323e 624a 053f 6497 79bd
000001e0: e532 e5be bf4f 323e ac8d 1d3e 52f4 40bc
000001f0: 8cd4 8dbe 27c6 6b3e 8d4a be3d b8c8 ab3e
00000200: 2430 a33e 0ecc 023f 1876 5f3e c9f3 083f
00000210: 7cc3 f7be 38b7 58be 67e7 e5be 2408 31be
00000220: d551 bfbe 1e8f 70be 9310 df3e 8c1d 1c3e
00000230: 1174 823e 6c73 d1bd fc52 67be 5450 1a3d
00000240: 19bb 1dbe 545c a73e cc42 25be 8295 cb3e
00000250: 223e 473e f3e4 f9bd 9b7e 9c3d c28c c63e
00000260: 5d76 913e a4f6 003e 73b7 c13a 829c b9be
00000270: 6362 75be b13c 82bd 659b 463d 967f f63e
00000280: c798 6e3e 1d43 b7bd 440a 973d 1195 953e
00000290: c646 323e f288 e93d 2bec c73e ba9b d43e
000002a0: c275 f8bd b2cb f73e 1f6b 003f 362d cabd
000002b0: 7bd7 09bf e881 02bd 4ae2 443e 6df9 4cbd
000002c0: e70b 9fbd 35cb d93e 0c8e 0abe a0b7 893e
0.39761758 -0.4041582 -0.11055228 -0.008460744 0.43673396 -0.0679456 -0.018705312 0.12865028
-0.012776711 -0.3995649 0.30985108 0.38806263 0.18520242 -0.03399392 0.1550474 -0.016623596
0.034496512 -0.12076201 -0.42888013 -0.26769212 0.2868209 -0.3789514 0.14427362 -0.18066224
0.596478 0.5595455 0.33616504 -0.4418352 0.3384343 0.036165226 0.11226653 0.61775666
0.55577606 0.27782595 -0.020198422 -0.36248678 -0.1897449 0.28396598 0.4074825 0.28751022
0.39550266 -0.09426745 0.062486414 -0.40917262 0.14061962 -0.059588447 -0.13199805 -0.4218064
0.45135108 -0.118011355 -0.0027616876 0.5892805 0.037187696 0.24174064 -0.3028102 0.26653674
0.4900342 0.05561644 -0.27545577 -0.40432286 0.025827441 -0.53176105 0.03509021 0.23495057
0.00796246 -0.32443467 -0.5142687 -0.18220566 0.04690256 -0.09577142 -0.33523995 -0.29347694
0.03164625 -0.18430302 -0.3919495 0.62524843 0.10957281 0.24150047 0.19584897 0.002435003
0.2299885 -0.37625757 -0.20576657 -0.36726186 0.04564226 0.37327024 0.5668817 0.08896924
-0.23028547 -0.34281415 -0.12972115 0.074573144 -0.3243572 -0.37638217 -0.18931831 0.2714147
0.5828597 0.4313682 0.28625908 -0.38968554 0.3963125 -0.30785865 0.23894662 -0.5407443
0.2246258 0.4321088 0.58243066 0.5971718 0.6025998 0.25203443 -0.084932104 -0.11729168
-0.17502566 -0.08223359 -0.16764785 0.12288783 -0.34943894 0.17462075 0.52066624 -0.060935393
-0.44765392 0.17413233 0.15386075 -0.0117770005 -0.27701223 0.23024808 0.09291563 0.33551574
0.31872666 0.5109261 0.21822393 0.53496987 -0.4839133 -0.21163642 -0.44903108 -0.17288262
-0.3736712 -0.23492095 0.43567333 0.15245646 0.25479177 -0.10227093 -0.2259025 0.037674263
-0.15403403 0.32687628 -0.16138762 0.39762503 0.19457296 -0.12201872 0.076413356 0.38779265
0.28410617 0.12594086 0.0014779404 -0.36252218 -0.23963313 -0.06359232 0.04848804 0.48144215
0.23300467 -0.08948348 0.07375005 0.2921529 0.1740981 0.11403073 0.3904737 0.4152506
-0.121318355 0.48397595 0.50163454 -0.098719046 -0.5384442 -0.03186217 0.19226947 -0.05004256
-0.07765942 0.42537847 -0.13530749 0.26897907

W_ih_mn f4 [5, 60]
00000000: 629b 413e 229c 093f 8c0b 0b3f 75de 853e
00000010: f45b 693f 3fd8 403e c0d5 df3e 221d 353f
00000020: 9303 a03e b09b 1e3e 14da 023f e3e5 183f
00000030: f4f9 c43b b143 873d 1ead a23e a7cd 0e3e
00000040: cae2 ae3e f85c b23e 7273 733f 47bc 7f3e
00000050: c5e0 fe3e 56ab c63e a6ed 7d3e 5365 2c3f
00000060: d857 393f 4bf7 0c3f 59c7 e03d c058 563f
00000070: 1c4c 003f 2319 853f 6504 803e 89e8 433f
00000080: 3cde 62bc 1207 5c3f c362 593f 49d6 4b3c
00000090: 0bb1 ae3e e6a4 b43d ac5c d53e b66f 513f
000000a0: 5abc 793f 4eb4 c93d 88f5 f83c fd89 873e
000000b0: ebd6 0e3f bf97 5d3f 1c65 ea3e fd06 7f3e
000000c0: a427 6c3f 2557 ff3e 0848 fb3e d7fd 853f
000000d0: 69a5 4a3f eab4 c4bb 4fff 2fba 3a81 093f
000000e0: cda0 103e 64a6 883f ef42 063f 22de 3c3e
000000f0: 4403 1cbd ca2b 053e 28ab 323f 129b d73d
00000100: e0ca 963e 4fa4 e43b be9e 0d3f 39d9 323f
00000110: 185b 33bd 82c5 a0bd f462 223e d6c3 6b3e
00000120: fad6 df3d 1a8d 2c3f 3b94 323f f761 583f
00000130: 0f84 3d3f 3218 3d3e d7ca 03be 59a3 3abe
00000140: 4566 923d 28b8 973e d15d 373f 422f aebd
00000150: cfaf 1a3f 3423 66bd 2298 cd3d df4a 283f
00000160: aaee 3b3f a7a3 333f 5b94 bbbd 50cb e93e
00000170: 0032 863d a8dc d2bd 6f81 143f dc41 9c3e
00000180: 1c3d 103f 3b61 0b3f e929 9c3d 71e3 343e
00000190: 98c6 433f 2131 a73e 0433 a13e 359b 283f
000001a0: 30e3 783e c567 f23e 3185 1cbe 00ef 86bc
000001b0: 2584 1f3d 1269 043f 1a77 303e 4bc2 293f
000001c0: ca78 873d c992 db3e 2a4f 293e 0621 163f
000001d0: da65 4bbd 119d db3d 6e23 293e 3fcb 1cbe
000001e0: d816 6c3f cb58 ce3e 9351 0c3d f8fe ef3e
000001f0: 0773 583f 6719 623e f979 f73e 8320 d13d
00000200: 7e8d 643e d596 ee3e 3432 f33d b898 c93e
00000210: a576 ad3e fd0b 243f 4fc5 f53e 1d30 193e
00000220: 5af5 a33c e71a 9c3e c17b db3e b6ca 683f
00000230: 50a1 713f 3bb2 593f 5f1d 4b3f f2c9 0d3e
00000240: 1a1c 463f 00c1 a0bd b41e 14bc 7f1d 313e
00000250: 0497 423e c89d 683f 3f51 223f 6394 7a3f
00000260: cfc2 28be 345d 013f b8f1 233f ab0c ef3e
00000270: fc7e b33e 32dc 0a3f f5b9 d93e ecb5 553f
00000280: 0544 813d 80fd db3e f740 003f 1f08 d73e
00000290: 5e80 873f 0ec8 ac3e 83b4 d03c c865 fe3d
000002a0: ef3b fa3e f13b 533f 412f 423f e237 d43e
000002b0: c376 9a3d 610b 643d 79d5 f23e 6f89 0b3f
000002c0: ce9e 1c3f bfc8 ae3e 25e2 253f 96e1 863e
000002d0: f3b6 ce3e f399 d03c 0de6 a93e 9ea6 483e
000002e0: fd9b 823d 3bc9 093f 45a5 07bd fed9 413f
000002f0: 7bdb fcbb 8b13 fa3e 60ff 2bbe 37b4 883e
00000300: 8ddb a43e c551 ecbc 3651 49bd 4413 f23e
00000310: f18a 623f 836d 9f3d 8a83 133f 8e00 363f
00000320: 542a 4b3f 2b75 ec3c c107 4c3e fff1 c03e
00000330: 3292 2f3f 2ddb e43e 116d 533f a881 fd3e
00000340: c451 113e 23bc 323e 394b e23e 7b6f 003f
00000350: 606a 053f 039b 9a3e f130 593f e326 2a3f
00000360: 4563 3abe e6c6 c53e 84e1 ff3e 85cf d13e
00000370: b1c8 433e dccc 343f d09d b53e 4dd5 5abe
00000380: 529f 4e3f 6b4a 8b3e 327d 37bc f7d8 c03e
00000390: 2712 883e c57e 06be f832 d83e d5b3 603f
000003a0: 91ff 1d3f 4dce 7e3e ee3b f53e d10c 81be
000003b0: e582 0c3f b119 ff3e f3e9 833e 36de 253f
000003c0: 1abd 043f b8d4 dc3e 41ad 763f 6efc 7b3f
000003d0: 2909 1e3f 55eb af3e 4880 413f e28b 5a3f
000003e0: 7445 ba3d 12ce 333f 26fa be3e 48f8 163f
000003f0: 47ba 833e 36db f33e de0f 1e3f 6222 653f
0.1890693 0.53753865 0.54314494 0.26146284 0.91155934 0.18832491 0.43717766 0.7074758
0.31252727 0.15489078 0.5111401 0.5972578 0.006011242 0.06604708 0.31772703 0.13945638
0.341574 0.34836555 0.9509803 0.24974166 0.4978086 0.38802594 0.24797687 0.6734211
0.72399664 0.5506484 0.109755225 0.8372917 0.50116134 1.0398296 0.25003353 0.76526695
-0.01384693 0.8594829 0.84916323 0.012441226 0.34119448 0.088205144 0.41672266 0.8181108
0.97553027 0.098488435 0.030390516 0.26472464 0.5579669 0.8655967 0.45780265 0.2490501
0.92247987 0.49871174 0.49078393 1.0468091 0.79158646 -0.006003012 -0.0006713764 0.5371281
0.1412384 1.0675778 0.5244588 0.18444112 -0.03808905 0.13004985 0.69792414 0.10527624
0.29451656 0.006977595 0.55320346 0.69862705 -0.043788046 -0.078501716 0.1585806 0.23023924
0.109296754 0.67402804 0.6975743 0.8452448 0.7402963 0.18466261 -0.12870346 -0.18226375
0.071484126 0.29632688 0.7162753 -0.085051075 0.6042451 -0.056185916 0.10038783 0.65739244
0.7341105 0.7017159 -0.09159156 0.45662928 0.065525055 -0.10295993 0.5801 0.30518997
0.56343246 0.54445237 0.07625181 0.17664887 0.76474905 0.3265467 0.31484234 0.6586183
0.24305415 0.47344795 -0.15285183 -0.016471386 0.038944382 0.51722825 0.17232934 0.6631209
0.066148356 0.42885426 0.16534105 0.5864414 -0.04965768 0.107233174 0.16517422 -0.15311907
0.92222357 0.4030212 0.034257483 0.46874213 0.8455052 0.22080003 0.48335245 0.10211279
0.223196 0.4659945 0.1187481 0.39374328 0.3387958 0.6408079 0.48002097 0.1495976
0.020014454 0.30489275 0.42867854 0.9093431 0.9438677 0.85037583 0.7934169 0.13846567
0.7738663 -0.07849312 -0.009040523 0.17296408 0.1900292 0.90865755 0.6340522 0.9788267
-0.16480564 0.5053284 0.6404071 0.46689352 0.3505782 0.5424224 0.42524686 0.83480716
0.06311802 0.42966843 0.5009913 0.41998383 1.058605 0.3374638 0.0254767 0.12421757
0.4887385 0.8251334 0.75853354 0.41448885 0.07542183 0.055674914 0.47428492 0.5450658
0.61179817 0.34137532 0.64798194 0.26343983 0.40373954 0.025464034 0.33183327 0.1959481
0.06377409 0.5382268 -0.033116598 0.75723255 -0.007716594 0.48843035 -0.16796637 0.26699993
0.32198754 -0.028847585 -0.049149714 0.47280324 0.8849326 0.077845596 0.5762259 0.71094596
0.7936146 0.028864464 0.19924833 0.37684628 0.6858245 0.44698468 0.825883 0.49512982
0.14191347 0.17454581 0.44198015 0.50170106 0.5211544 0.3019639 0.84840304 0.66465586
-0.18201931 0.3862831 0.49976742 0.40978637 0.19119526 0.7062509 0.35471964 -0.2137043
0.80711854 0.27205214 -0.0111992825 0.3766553 0.2657635 -0.13134296 0.42226386 0.877744
0.6171809 0.24883385 0.47897285 -0.2520509 0.5488723 0.49824288 0.25764427 0.6479219
0.51851046 0.43131042 0.96358114 0.9843205 0.6173273 0.34359232 0.75586367 0.85369694
0.090952784 0.70236313 0.37300223 0.589726 0.25728056 0.47628182 0.6174296 0.8950559

W_ho_mn f4 [60, 3]
00000000: 2f95 1cbe bff3 953e f8a2 243f b3fc 33be
00000010: abf4 e5bd 19be 0b3f 2dd4 13be c59f b1bd
00000020: 2bb0 df3e 14ea b9be 28b8 56bc b4b0 d4be
00000030: 1bef aa3e 0b7d 833d 5c94 cabe 1011 5b3e
00000040: 91a4 833d 508b a9be c284 553f a4db 023f
00000050: 9a3d 1a3f 24eb bcbe 0bef b9be 48ac 16be
00000060: 3c33 b93e 8144 8d3e c276 a93e 37cc df3e
00000070: 3196 603e afdc 133e 5532 ee3e 3f61 4cbd
00000080: 30bd d53e 17a0 883d 34e5 513e f87b 323f
00000090: 2351 edbd 6ad1 b53e c69c ff3d 8931 f43d
000000a0: f11e 013f 237e b03d 5495 febe d8ac 84be
000000b0: cb1f bd3d a5cd 6abd a404 26be 0c00 98be
000000c0: 2d46 a0be 6c4c 943e ada2 40be 3ccc 4e3f
000000d0: 6e2d c03e 9e81 83bc 5076 513e 9d97 acbd
000000e0: 75b0 d43e 2935 c23e ff3c 223e 09b7 7b3e
000000f0: b868 9e3d 126f fbbe 8e79 9abd 8128 0cbf
00000100: 931b a9be 6fe2 6cbe bf61 e2bd 8e33 103d
00000110: 0f90 1b3e 6032 2dbf bbf0 7ebe 9e0b 40bf
00000120: bc78 54be ac33 d7be 7577 75bf b29a a4be
00000130: 29aa 0b3d 065d 8fbe 49a5 b83e 65b5 83be
00000140: e5ca 0b3c cbdf 5cbf 820b 17bf e10a 32bf
00000150: 40df ed3b 0c54 ebbe c737 11be 849b 09bf
00000160: ba15 e13e 1f7d 9a3d bc08 493e 404d 193e
00000170: 6c11 d13e 470a 053f f75c d23d 3545 a73e
00000180: d26a fdbd 65b4 373e 29e2 e23e ceba cd3e
00000190: d868 273e c6ed 0a3f 8de3 d73e 85a3 1ebe
000001a0: 6798 933c 768f 4d3f a55c 9e3c 053b 0a3f
000001b0: ff4e ab3d 0fbc c03d aeb8 23be 7803 17be
000001c0: 3193 fa3c 31e2 2e3d 2b01 3a3d 89fd 8e3e
000001d0: 4c8f 433f 9658 8fbe b3b7 a8be 8804 97be
000001e0: 2f1b 873e c7f0 84bc 6a71 b1be 9b7b f33d
000001f0: 9c74 bbbd b4f4 3fbd 0d22 583f 388b 593f
00000200: 9639 203f e98c df3e c652 3f3e 9f44 53bc
00000210: 9d66 1c3f 7c5d 053f 58d9 ba3e 19f5 143f
00000220: 059e 203f 4213 c33e 8145 583f 83f2 233f
00000230: 4a8e 023f f503 033e 22d1 3cbf f913 06bf
00000240: e142 e93d e859 6fbd 493e ae3e c321 3f3f
00000250: ca1f 2f3e 6383 333f 9364 493f 5e30 1b3f
00000260: 4278 283d c52f 6bbf f142 b3be 9ea1 e8be
00000270: 1e84 b43e eb5e 0d3f 54ff 583e 5b8a c3be
00000280: 9f0e 1abe 0912 80be 47af 463e 6d44 b2bb
00000290: 4e64 8d3e d0cf 693f 7926 6b3f 0610 8c3e
000002a0: 0a8f abbe 14d8 0e3f 6952 723e cfe8 d83b
000002b0: b225 09bf 820a bbbe 15e1 113f 17c7 24be
000002c0: fec7 de3d f0b3 4bbd c2f6 8a3e eae7 a23e
-0.15291284 0.29287526 0.6431117 -0.17576866 -0.11228307 0.5458694 -0.14436407 -0.08673052
0.43689093 -0.363114 -0.01310543 -0.41541064 0.33385548 0.064203344 -0.39566314 0.21393228
0.06427873 -0.331141 0.834057 0.51116395 0.60250247 -0.36898148 -0.36315188 -0.14714158
0.361719 0.27591327 0.33098418 0.4371049 0.21932293 0.14439653 0.46522775 -0.04989743
0.417459 0.0667116 0.2049759 0.6972041 -0.11587741 0.35511333 0.12481074 0.119235106
0.5043784 0.08617809 -0.49723303 -0.2591312 0.0923458 -0.057325024 -0.16212708 -0.29687536
-0.3130354 0.28964555 -0.18812056 0.80780387 0.3753466 -0.016053017 0.20455289 -0.084273554
0.41540876 0.37931183 0.1584358 0.24581541 0.07734817 -0.49108177 -0.07542716 -0.54749304
-0.3302885 -0.23133253 -0.110538 0.035205416 0.15191673 -0.6765499 -0.24896519 -0.75017726
-0.20749182 -0.4203161 -0.958854 -0.32149273 0.034097824 -0.2800066 0.36063603 -0.2572433
0.008532261 -0.8627898 -0.59001935 -0.6954785 0.0072592795 -0.4596256 -0.14181434 -0.53752923
0.4396189 0.07543396 0.19632238 0.14970875 0.40833604 0.51968807 0.10271638 0.32669988
-0.1237389 0.17939909 0.44313172 0.40181583 0.16348588 0.54269063 0.42165795 -0.15492065
0.018017007 0.8029703 0.019331286 0.53996307 0.08364677 0.09410869 -0.15988418 -0.14747417
0.030587764 0.04269618 0.04541127 0.27927807 0.7639053 -0.27997273 -0.3295265 -0.29495645
0.26387927 -0.016228093 -0.3465684 0.1188881 -0.09153101 -0.046864226 0.8442696 0.84978056
0.6258787 0.43662193 0.1868392 -0.0128947785 0.61094075 0.5209577 0.36493945 0.5818649
0.6274112 0.3810063 0.84481055 0.6404192 0.50998366 0.12794478 -0.7375661 -0.52374226
0.11389709 -0.05843535 0.34031895 0.7466089 0.1710197 0.70122355 0.7866909 0.6062068
0.04113031 -0.91869766 -0.3501201 -0.45435804 0.35257047 0.5522296 0.2119115 -0.38191494
-0.1504464 -0.2501376 0.194028 -0.005440286 0.2761559 0.9133272 0.9185558 0.27355975
-0.33507568 0.5579846 0.2366425 0.00661955 -0.53573143 -0.36531454 0.5698407 -0.16091572
0.10877989 -0.04973215 0.27141386 0.3181756
