f1tenth_system_identification/mnn_model.pth (torch, 4585 bytes, 5 tensors)

mem_layer.memory_coef f4 [64]
00000000: 05c5 293a 1163 a6ba 8691 9b3b cfe6 033a
00000010: 2fb8 b83c 6db2 46bb 3b68 adbb 668c af3a
00000020: 5a69 f93a 5bda 45bd 7e66 99ba 4a95 863c
00000030: d001 32b7 120c 913a 308d 22ba 16e2 c03c
00000040: 3168 993b 8111 67bb 280f 5bbb 8557 f23a
00000050: 8435 76b9 d37c cb3b d4b1 283b 5de4 01bc
00000060: 3b2d ab3a ea9d b5bb 36a3 fc3a afc1 ddbb
00000070: 10dd 06bc 12bf fbbc 6876 6cbc db79 a8bb
00000080: da09 04bb 7e46 633b fed0 a53b c4d0 99bc
00000090: 7d74 913b 1541 d63b 3ace 3c3c f6a6 863b
000000a0: 86b9 b4ba 0665 603b 1ba8 5c3b d5d5 44bc
000000b0: 1ce6 a43b 1924 45bb 58c5 6dba 004a 16bb
000000c0: 8237 18bc b173 09bc 9ab8 88bc b9cf f63b
000000d0: 1dab 58ba 931f f939 24d7 073c 2ae7 f53a
000000e0: 33ff fe3c a6da bebc 5e3b 263d e55a a4b9
000000f0: 78e6 14bb edb0 283c f66b 1fbb 1f01 1bbb
0.00064761966 -0.0012694319 0.0047475724 0.00050316466 0.022548763 -0.0030318752 -0.0052919663 0.0013393282
0.001902859 -0.048303943 -0.0011703519 0.016428608 -1.0610049e-05 0.0011066219 -0.0006200848 0.023545306
0.00468161 -0.0035258236 -0.0033425782 0.0018489218 -0.00023480324 0.0062099486 0.002574076 -0.007927981
0.0013059744 -0.0055425065 0.0019274715 -0.0067674736 -0.008231416 -0.030730758 -0.014432527 -0.0051414794
-0.0020147474 0.0034679468 0.005060314 -0.018776305 0.0044389353 0.00653852 0.011523778 0.0041092588
-0.00137882 0.0034239902 0.0033669535 -0.012013872 0.005032314 -0.003008133 -0.0009070239 -0.002293229
-0.009290578 -0.008389399 -0.016689587 0.0075320867 -0.0008265244 0.00047516506 0.00829104 0.0018760909
0.031127548 -0.02329762 0.04058396 -0.0003134824 -0.0022720378 0.010296089 -0.0024325824 -0.0023651791

mem_layer.hidden.weight f4 [64, 5]
00000000: e369 9c3f 5189 963f 4539 f2bc 786e 89be
00000010: 59d2 e8be 97b5 e3be 3d5e 8c3f 8b69 393e
00000020: 7887 703d ff80 ddbe f990 16c0 d0de 5fbf
00000030: 196e f9bd 1b52 26be 10bc dbbe d4c7 a53f
00000040: b2db 28bf 2db5 9abd 1298 43be 9060 65bf
00000050: 4772 3c3f 080e 92bf f977 bb3d 5469 8fbe
00000060: 4f73 a9bf 40b3 88be e733 1b3d 5b04 803d
00000070: 9b08 ac3e cee9 443e 30dd 5bbf 8acf c43e
00000080: 4244 02bd 326c 70be 0209 edbf e8df e3bf
00000090: e7ca 8abf 882b 01bd c903 dabd 5c50 c73f
000000a0: 75f2 de3e 0919 b1bc 6573 c0be 4281 953e
000000b0: 7702 2d3e 48da ba3f ea1f ad3f edb9 05be
000000c0: c1d6 c53e 91b2 d93f 1239 d5bf 83ae d5be
000000d0: b244 943d 07be 073e 3f60 123f f2b4 963d
000000e0: ccdb 133f f811 c53d 0202 713e 121b 27bf
000000f0: 39c5 933f 0d9c b7be 06cb 40be b9fe ecbd
00000100: b417 86bd 1462 553f 7f64 433e fb27 953c
00000110: 0817 00be 9c73 a43f 7be4 943f 310e 8bbe
00000120: 89e1 e43d af4c 943e c7e4 34bf 2c56 b0c0
00000130: 732e 28bf 3d75 e93d 491c 413b 94ed 23bf
00000140: a2b0 aabf 26ab bc3f d5b9 59bc 54fb 44be
00000150: c3ef 9f3d bdb7 d33e 1ad6 a2be 0788 90be
00000160: 0f25 9fbd be9b 093f 92c3 da3f 0402 9a3e
00000170: ffb4 17be 4640 d2bd 13f3 813f 010f 06c0
00000180: 6d73 8d3f f72b 7abe 4b37 7cbd 66da 0d3f
00000190: 4a62 94bf f16c f03f 89e8 0abe b2f6 58be
000001a0: 5a0e 803d 3fe5 13be e9b0 0a3e 216d 473e
000001b0: 2712 ed3e e1fc f4be 69e0 6d3f 32c3 b2bf
000001c0: 6341 b43d 1e54 8c3e e100 56bd 5dc3 11c0
000001d0: a3b5 2cbf 39ca 2abe bf34 06be c685 f8bc
000001e0: f83e aabf cbfc 403f f46b 693e 2b08 163e
000001f0: e697 9dbd cafb 683f f497 85bf a5cd ac3e
00000200: 8952 283c a5dd 18bc ea38 4ebe bdef 933f
00000210: 368d 503e bc81 053e d3b9 f9be 7822 b8be
00000220: 3bbe a2be 0ed5 f23c ed4a 843e 1965 e7bf
00000230: 9c9a 52c0 c12e ecbe c9bb c7bd be68 bdbc
00000240: 67e4 96be 070b fe3d 19ab 953f 9f89 ce3d
00000250: e074 f13d c3a4 59bf 032b 74c0 8067 8ebf
00000260: ba3a 213e 7610 04bf a303 0f3e f542 e13f
00000270: add0 883f e615 203e 9bdc ad3e e840 773f
00000280: 98fc a13f 1dab 70bf eb4f 3e3e 3e0f 543e
00000290: 39f0 1fbe f92e b83f e0ba c63f d7c2 9c3c
000002a0: d63d 43be 0f63 953d 4b24 253f 467f 3dbf
000002b0: ea4d 22be 6589 08be 0f43 6ebf d533 07c0
000002c0: c5fb 773f be10 93be 8778 893e f602 773f
000002d0: 772a 80be 9749 b33e 6d6d 43be 2df3 adbd
000002e0: c44c 3cbf 090d 01c0 a9a8 a8be abf0 833e
000002f0: b6c1 6f3d 15ef 14bf fb75 da3e c3f2 3fbf
00000300: 66f4 eebc af03 c0be 3538 06bf 7ed5 efbf
00000310: bdc8 b53f 8677 073d 77b4 b5bd b786 313e
00000320: 48c3 cdbe 42fb 403f f071 8abb 980a a1be
00000330: 1fd0 55bf 003d 0ebe 1af1 b53d ae1e 80be
00000340: 1ae7 f5bd d3d7 073e e6d0 da3f d133 eabe
00000350: 5f70 37be 1653 d13e 7a8d 5b3f 00f8 12c0
00000360: 470b 993f 45a7 4a3e fc25 e33d d3c4 a2bd
00000370: f7d2 a6bf c171 ab3e 7ad6 343e 6196 af3d
00000380: 8b2f 04bf 6ce3 9b3f ffa2 34bf fe7c 4fbe
00000390: d869 29be 452b 353f b4c4 f7bd 57a0 c03f
000003a0: 89ee 8cbc 045c 40be 186d 86bd dd73 a93f
000003b0: 6ffd 92bf b065 113d 769d 513e 581b fbbe
000003c0: a436 513f 7ef3 833f 943b 75bd a6c8 ca3e
000003d0: 2321 d83f 6842 c73d 31ae d9bf f6ea fbbb
000003e0: 7382 483e 78fa 6ebd 33f7 a8be ee4c 36be
000003f0: 72d1 b2bc 339d 9cbe 0661 a1bd 7c3c 26c0
1.2219814 1.1760656 -0.029568324 -0.26842093 -0.45472983 -0.4447448 1.0966259 0.18106668
0.058722943 -0.4326248 -2.3525984 -0.8744936 -0.121792026 -0.16242258 -0.42916918 1.2951608
-0.6596023 -0.07554088 -0.19100979 -0.8960047 0.73611873 -1.1410532 0.09153742 -0.28010046
-1.3238314 -0.26699257 0.037891295 0.06250831 0.33600315 0.19229814 -0.8588438 0.3843959
-0.031803377 -0.23478773 -1.8518374 -1.7802706 -1.0843171 -0.031535655 -0.10645253 1.5571399
0.43544355 -0.021618383 -0.3758804 0.29200178 0.16895472 1.4597864 1.3525364 -0.13059206
0.38640407 1.7007619 -1.6658041 -0.41734704 0.07239665 0.13256083 0.5717811 0.07358731
0.5775726 0.09622568 0.23535922 -0.6527568 1.1544563 -0.35861245 -0.18827447 -0.11572022
-0.0654749 0.8335278 0.19081305 0.01820754 -0.12508786 1.2847781 1.1632227 -0.27159265
0.1117583 0.28964755 -0.70661587 -5.510519 -0.65695876 0.113993146 0.0029466322 -0.6403439
-1.3335154 1.473973 -0.013288935 -0.19236499 0.07809403 0.4135112 -0.31803972 -0.2822878
-0.0777074 0.5375327 1.7090933 0.30079663 -0.14815138 -0.102661654 1.0152305 -2.0946658
1.105085 -0.24430834 -0.06157617 0.55411375 -1.1592495 1.8783246 -0.13565268 -0.21187857
0.06252737 -0.14442919 0.13544048 0.19475223 0.46302912 -0.4784918 0.9292055 -1.3965819
0.08801534 0.27407926 -0.052246932 -2.277549 -0.67464656 -0.16678704 -0.13106059 -0.030337226
-1.3300467 0.7538573 0.22795087 0.14651553 -0.07694988 0.910092 -1.0436997 0.33750644
0.010273584 -0.009330188 -0.20138898 1.1557537 0.20366368 0.13037771 -0.48774585 -0.35963798
-0.3178576 0.029642608 0.25838414 -1.8077728 -3.2906866 -0.4612942 -0.09752614 -0.023121234
-0.29471132 0.12404447 1.169284 0.10084843 0.1178987 -0.8501703 -3.8151252 -1.1125336
0.15745059 -0.5158762 0.13966231 1.7598559 1.0688683 0.15633354 0.3395737 0.96583414
1.265521 -0.940111 0.18585174 0.2070894 -0.15618981 1.4389335 1.552578 0.019135876
-0.19066557 0.072942846 0.64508504 -0.7402233 -0.15850034 -0.13333662 -0.93071073 -2.1125386
0.96868545 -0.2872371 0.26849768 0.96488893 -0.25032398 0.35017082 -0.19084711 -0.08493648
-0.73554635 -2.0164206 -0.32941177 0.25769553 0.058534347 -0.5817731 0.42668137 -0.749798
-0.029169273 -0.3750281 -0.52429515 -1.8737028 1.4201885 0.03307297 -0.088723116 0.17336546
-0.4018805 0.7538339 -0.004225008 -0.31453395 -0.8352069 -0.13890457 0.08883877 -0.25023407
-0.1200697 0.13265924 1.7095001 -0.45742658 -0.1791396 0.40883702 0.8576275 -2.2963867
1.1956567 0.19790371 0.11091229 -0.079476975 -1.3033131 0.33485225 0.17659941 0.085736044
-0.51635045 1.2178779 -0.7056121 -0.20262524 -0.16544282 0.7076915 -0.12098065 1.5048932
-0.017203586 -0.18785101 -0.06563777 1.3238484 -1.1483592 0.035497367 0.20470223 -0.490443
0.81724 1.0308683 -0.05987127 0.39606208 1.6885113 0.09729463 -1.7006284 -0.0076879216
0.19581012 -0.058344334 -0.33001098 -0.17802784 -0.021828387 -0.30588683 -0.07879834 -2.5974417

mem_layer.hidden.bias f4 [64]
00000000: f1a9 823f 37ea aa3f fc63 31bf 17fa 47bf
00000010: d048 4bbf 558e 3d3e d6b1 c83e 2136 30bd
00000020: ffe6 f83e 75eb 1d3f bc6c d8bf fcc2 383e
00000030: 860d de3e 13fc 83be ccef 8cbe 419a 2ebf
00000040: ce16 1040 edf1 ac3e f9ba 563e 0184 373f
00000050: 5641 de3f 092a 7d3e 0bc0 dfbf ef6d 10bf
00000060: 2990 b03e f8b5 11bf faaf eb3f e2b9 f43c
00000070: 6b30 0bbf f1c2 683f d9b0 82bf 2dfd 223c
00000080: 9517 19bf 8067 eb3f 7a7e 57bf 7f2e 3f3f
00000090: 5bb9 e13e bf6a e3bd d1bb f6be 3cf6 7b3f
000000a0: 7b44 a13e 91bc 673e 6824 6ebd 41e5 0d40
000000b0: 8c84 0d3e 8459 95bf d1e9 903f fa0b 40bf
000000c0: 07b3 003f e3bc f2bf bb41 25bf cd38 8bbf
000000d0: e738 c93e 6ef7 053f 5d0e 553f 0433 773f
000000e0: c1df 3e3f ce67 78bf 9350 a0bf f9c3 d9be
000000f0: 8117 07bf f1d7 ba3f 3c5b f73c 7f92 863f
1.0208112 1.3352727 -0.6929319 -0.7811598 -0.7940798 0.18511327 0.39198178 -0.04302037
0.48613736 0.61687404 -1.6908183 0.1804313 0.43369693 -0.25778255 -0.275267 -0.6820412
2.251392 0.33778325 0.20969762 0.71685797 1.7363689 0.24723066 -1.7480482 -0.56417745
0.34484985 -0.5691829 1.8413079 0.029873792 -0.54370755 0.90922457 -1.021022 0.009948057
-0.5980161 1.8390961 -0.8417736 0.7468032 0.44086727 -0.111043446 -0.48190168 0.984226
0.3149756 0.22630526 -0.05814019 2.2171175 0.13820094 -1.1667943 1.1321355 -0.75018275
0.50273174 -1.8963894 -0.6455342 -1.0876709 0.39301226 0.5233067 0.8322504 0.9656222
0.7456017 -0.97033393 -1.2524589 -0.42532328 -0.5277024 1.459715 0.030194871 1.0513457

output_layer.weight f4 [3, 64]
00000000: 4b33 363f c324 e93f ddbb 9c3f 0085 8f3f
00000010: 29ed 8c3f 3285 0dbf 381b 613f 5d3e c13f
00000020: e706 60bf fba5 72bf 3795 c73f 657e 6dbf
00000030: 4763 e0bf ebc5 843f 17a3 37bf 83c4 ad3f
00000040: 64c7 8a3f f25d 9cbf a192 8ebf 47f1 a2bf
00000050: 0652 bbbf 4013 f1be d046 083e 7e22 d2bf
00000060: 2844 da3f 3bab c83f 0362 e33f 69d9 43bf
00000070: 7f29 d0bf e1bf d9bf cd6d 903f 73bc 8fbf
00000080: 66b3 b93f cf28 a43f a982 b7bf 3ce4 8dbe
00000090: 0ef2 d7bf c9a2 ba3f 03bc 3c3f 4286 cc3f
000000a0: d7af 013f 872a c2bf f9e7 33bf 932b cf3f
000000b0: 0311 903f 606a a6bf 5b28 c93f 9660 92bf
000000c0: 2058 89bf fdcf 90bf 540e 293f 98fd 94bf
000000d0: 9286 96bf e2ec babf 4e14 be3f ce2a e0bf
000000e0: 198a 88bf 8152 813f d11b 8a3f 272d c23f
000000f0: 0f72 96bf c6f0 f83f bdf9 c3bf 4aa2 c63f
00000100: cfe3 e8bf da94 4abf b543 7abf 3992 b2bf
00000110: ae2b 83bf 695b be3f 6762 d6bf af8a 26bf
00000120: 872f aa3f 4181 893f f762 e63c b5da ab3f
00000130: 94ac dc3e 90f1 6bbf e5da cf3f 3c7c 3bbf
00000140: 998f cebf 8898 ba3e 8cc5 fc3d e38f a03e
00000150: 218d a43f cead ab3f 1443 d43f c481 b03e
00000160: e9d3 093e 890e dbbc 91dd 7d3e 270c 9e3f
00000170: 86fe 8c3e dc5e 183f 8987 9abf 31df 413f
00000180: d378 94bc 6b2e 07c0 a404 13be 418e fd3f
00000190: fb82 edbd 28f0 dabe 1599 b4bf f6b4 013e
000001a0: dcd8 04c0 8ed5 01be 27ed b03f be45 2a3e
000001b0: 8b45 0abf dc87 0c3f 5ec9 86bf a7f5 f23f
000001c0: d376 8b3f 9697 0240 8f16 cabf 0c8b 993f
000001d0: d6b1 793f 7995 4d3f 342d 09bf 893d 48bf
000001e0: 1fb4 ae3f e1cc a2bf 4139 9ebf e9b9 02bf
000001f0: 5d9a 463f e8e8 16bf 176d 89be cae7 85be
00000200: e075 d93c 8c0c eebe be5a 1e3f 0e8b 42bd
00000210: 6f0a fdbc 4a64 213e 5986 46be 42d3 aa3d
00000220: 4819 433e 53fa da3d 0f9c 103f 0eb1 d63c
00000230: 09d3 86be 54b1 eb3e c85f 1dbe df6d 30bf
00000240: f398 c83d 2bb3 de3e 4e39 283f 5a2d e53e
00000250: 303c ddbd 2fd3 2c3e 186d 16bc 52ce 9bbe
00000260: 7c20 cc3d 9078 a13e db8d 5bbe aaf8 2e3e
00000270: 8ef0 e6bd 1252 06bf 9670 9fbc c49b 16bf
00000280: 3d5b 21be 1fc8 8cbe 64cd 67bf 971d 803e
00000290: 2a4e bbbe 8a94 a93e 9dff dcbd d4b8 373f
000002a0: b499 09bf d37e 8dbc 9cfc 8abe d9f6 123f
000002b0: 59a2 c8be f42a b73e 7482 06bf 929b 35bd
000002c0: a532 843e 0e31 823e cfed 3d3d 38cd e7bd
000002d0: 5d93 0dbf 91bc 373e 4c67 ad3d a15c 4fbe
000002e0: 98cf 373e c4de 2d3e a679 b63c 14e6 cc3e
000002f0: 05d3 39bf fb43 643e b5e1 2dbe 004b acbd
0.71172017 1.8214344 1.2244831 1.1212463 1.1009876 -0.55281365 0.8793216 1.5097157
-0.8751053 -0.94784516 1.5592412 -0.9277099 -1.7530297 1.03729 -0.7173323 1.3575596
1.0842099 -1.221617 -1.1138498 -1.2729882 -1.4634407 -0.47085 0.13308263 -1.6416776
1.705205 1.5677255 1.7764286 -0.76503617 -1.6262664 -1.7011682 1.1283509 -1.1229385
1.4507873 1.2824954 -1.4336749 -0.27713192 -1.6870744 1.4580928 0.73724383 1.5978472
0.50658935 -1.5169228 -0.7027584 1.6185173 1.1255192 -1.3001213 1.571544 -1.1435726
-1.0730019 -1.1313473 0.6603749 -1.1639891 -1.1759818 -1.4603541 1.4849946 -1.7513063
-1.0667144 1.0103303 1.0789739 1.5170029 -1.1753558 1.9448478 -1.5310589 1.5518277
-1.8194522 -0.7913338 -0.9775956 -1.3950874 -1.0247705 1.4871646 -1.674878 -0.65055364
1.3295754 1.074257 0.028123362 1.3426119 0.43100417 -0.9216547 1.6238676 -0.7323644
-1.6137573 0.36444497 0.123423666 0.31359777 1.2855569 1.3412416 1.6582971 0.34474003
0.13459744 -0.02674033 0.24791552 1.2347459 0.27537936 0.59519744 -1.2072612 0.7573119
-0.01812402 -2.1122081 -0.14357239 1.9809037 -0.11597248 -0.4276135 -1.4109217 0.12666687
-2.075736 -0.12679121 1.3822373 0.16628167 -0.54012364 0.54894805 -1.0530202 1.8981217
1.0895637 2.040502 -1.5788134 1.1995559 0.9753698 0.803062 -0.535846 -0.78218895
1.3648719 -1.2718774 -1.2361223 -0.51064926 0.7757929 -0.58949137 -0.2684104 -0.26153404
0.026545465 -0.46493948 0.6185721 -0.047495894 -0.030888764 0.15760913 -0.19387187 0.083410755
0.19052613 0.10692277 0.56488127 0.026207473 -0.26332882 0.46033728 -0.15368569 -0.6891765
0.09794798 0.4349607 0.6571244 0.44761163 -0.108024955 0.16877435 -0.009181283 -0.30430847
0.099671334 0.31537294 -0.21440832 0.17087045 -0.11276351 -0.5246898 -0.019462865 -0.5883143
-0.15757461 -0.2749643 -0.90547776 0.25022575 -0.36583072 0.3312114 -0.10790942 0.717664
-0.5375016 -0.017272389 -0.2714585 0.5740791 -0.3918636 0.35774958 -0.52542806 -0.044337817
0.2581989 0.2542805 0.04636937 -0.11318439 -0.55302984 0.17943026 0.08466968 -0.20250179
0.17950284 0.1697951 0.022274803 0.40019286 -0.72587615 0.22291557 -0.16980632 -0.084127426

output_layer.bias f4 [3]
00000000: 3214 8bbf 9108 963f 27f6 303d
-1.0865538 1.1721364 0.0432035
